data.pth (torch, 8127 bytes, 6 tensors)

l1.weight f4 [8, 110]
000000 98 bd 9b 3c e5 02 25 3e 2a 5c 0d 3f ea 4a 3e be
       0.019011304 0.16114385 0.55218756 -0.18583265
000010 9b 9a 46 be 0d 8a 83 3e 45 83 54 3e ee 64 2a be
       -0.19394915 0.25691262 0.207532 -0.16640064
000020 20 1d 6c bf 9a 6f e9 3e e3 c4 cb bd b6 10 3a be
       -0.9223194 0.45592958 -0.099496625 -0.18170437
000030 7b 03 58 3d cb e4 1b 3f b9 fa ee 3e 3c 6d 34 3e
       0.052737694 0.60895985 0.4667566 0.17619795
000040 f6 77 a0 3e fc 82 e0 bd 46 0d 14 3f 00 17 b5 3f
       0.31341523 -0.10962483 0.57832754 1.4147644
000050 24 25 6d be f6 b9 e5 3e d8 3b 8e be c2 50 39 be
       -0.231587 0.4486844 -0.27780032 -0.18097213
000060 d1 5c d2 be 30 f7 98 bf 33 1b 9a 3e f6 5a 98 bd
       -0.41086438 -1.1950436 0.30098876 -0.074392244
000070 2c db 74 bd 2c d8 32 3e 46 39 4a bd 53 b7 b2 3d
       -0.05977933 0.17465276 -0.049371026 0.087263726
000080 cf 4b b9 bd 0d 97 68 be e8 fb 4f be d8 b2 f0 be
       -0.090476625 -0.22713871 -0.20310938 -0.47011447
000090 63 21 0a be 67 c7 5d 3e 7c 27 0e bf 88 b9 a7 3d
       -0.13489299 0.21658097 -0.55529 0.08189684
0000a0 1b 14 b4 bd ee 2c 8f be 75 36 85 3e a5 ad 1f 3f
       -0.08792897 -0.27963966 0.2601811 0.62374336
0000b0 bf 63 7d 3d e5 59 01 bf df 37 c5 be 81 9a 0d be
       0.061862703 -0.50527793 -0.3851919 -0.1382847
0000c0 e2 71 3a be 40 aa df 3e 17 33 3a be fa 99 3a be
       -0.18207505 0.43684578 -0.18183552 -0.182228
0000d0 c1 03 3b be 80 62 94 3e aa f3 7c bd 18 a1 13 3e
       -0.18263151 0.289814 -0.061755814 0.14416921
0000e0 2e 62 8d 3e 29 45 ed 3d a6 b6 33 be 9f bc fe be
       0.27613968 0.11585457 -0.17550144 -0.4975328
0000f0 0a bb 4b bd 8f 86 34 3e 7a aa 8f 3e 52 f5 2a 3d
       -0.04973892 0.17629455 0.2805975 0.041737862
000100 9c 20 aa 3e 7f ec 3b 3f a4 b7 ec 3e 02 87 da be
       0.33228004 0.7340774 0.46233857 -0.42681128
000110 7e 6f 60 3d f7 ce cf 3e d9 b7 89 3e be 20 3a be
       0.054793827 0.4058759 0.26898077 -0.18176553
000120 f6 6f 8b be 62 8b 50 be ba d4 0e 3f e6 02 bb be
       -0.27233857 -0.2036567 0.55793345 -0.3652565
000130 ba 5d 1b 3f 1f d3 33 3f de 45 89 bf ca e3 a3 3e
       0.6068989 0.7024402 -1.0724447 0.32009727
000140 e6 3a 0d 3c 4d 6b ba bc 33 71 b1 be 3a 4d 3e 3f
       0.0086199995 -0.022756243 -0.34656677 0.7433659
000150 15 51 8c be 85 c0 6d bf ad d2 bd bd dc 44 f4 3e
       -0.2740561 -0.92871886 -0.09268699 0.47708786
000160 79 e5 e7 3d cf 2c f2 be 02 e3 40 bf 8a 19 95 3f
       0.11323065 -0.4729981 -0.75346386 1.1648419
000170 7d f2 02 bf b7 8c ce 3e 36 21 a0 3e 2d 83 6d 3e
       -0.5115126 0.40341732 0.31275338 0.23194571
000180 56 64 02 bf f3 4c 74 bf 3a 27 3c bd cb 78 3a be
       -0.5093435 -0.95429915 -0.045935847 -0.18210141
000190 0d df 84 be 89 9d f8 3e 0a 44 60 3e 02 8e a7 3f
       -0.25951424 0.4855769 0.21900955 1.3090212
0001a0 7b 97 00 bd bc a9 1e be 0f 0b 12 3f 16 a7 c1 3e
       -0.031394463 -0.15494436 0.57048124 0.3782279
0001b0 f9 f3 48 3e 6a 81 99 3e 2b 62 1e be 93 5a dc 3e
       0.19624318 0.29981548 -0.15467136 0.43037853
0001c0 f6 5c 8b 3e 88 d3 ed bd e7 81 db 3e 47 38 56 3e
       0.2721936 -0.11612612 0.42872545 0.20919906
0001d0 5b bd 2e 3d 64 fb a8 be b4 59 4d bf 28 33 20 3f
       0.042661052 -0.33004296 -0.80215 0.6257806
0001e0 a0 85 ae 3e ce 08 f5 be a5 2f 83 3e df 79 aa 3e
       0.34086323 -0.4785828 0.25622287 0.33296105
0001f0 55 66 13 3f 80 6d df 3e 9a d9 b4 3d 72 b7 6d bf
       0.5757802 0.4363823 0.08830567 -0.9285804
000200 d5 e0 3c bc 78 2f 6f 3f e3 fe 24 bf b8 da 1f 3f
       -0.0115282135 0.93431807 -0.64451426 0.62443113
000210 a1 48 10 3e 8a 43 fa be 13 e0 ad be 1e 12 99 3f
       0.14090206 -0.48879653 -0.33960018 1.1958654
000220 d3 06 06 3f fd 11 4e be 3a 76 8d bc 69 c6 03 be
       0.5235416 -0.2012405 -0.017268289 -0.12868656
000230 71 66 13 be e7 46 20 3c c7 e2 68 3f d6 37 9a be
       -0.14394547 0.009782529 0.90971035 -0.30120724
000240 27 41 85 bd 75 88 2c be 54 74 07 3e a5 71 11 3c
       -0.065065674 -0.16848929 0.1322797 0.008877193
000250 cb f3 8f 3f 23 e4 2d 3e e6 93 51 bd 34 03 03 3e
       1.1246275 0.16981559 -0.051166438 0.1279419
000260 c7 eb 8e 3d 80 ed 16 3f bf 27 be 3e d9 a1 07 be
       0.06978565 0.58956146 0.371397 -0.13245334
000270 48 6d 98 bf db 21 27 3f b6 f9 f4 be 19 8a d8 3e
       -1.190835 0.65286034 -0.47846764 0.4229286
000280 38 ff f4 be e9 e8 f4 be a6 08 f5 be 79 9a cf 3e
       -0.47850966 -0.47833946 -0.4785816 0.4054754
000290 13 3c c9 bd 91 87 09 be 69 98 17 3f 41 e3 33 3d
       -0.098259114 -0.1343062 0.59216934 0.043917898
0002a0 7c 1c 09 3d d8 66 00 be d5 3f 5f be 4f 9c 50 3d
       0.03347443 -0.12539232 -0.21801694 0.050930317
0002b0 3c 3c cf 3e e9 22 4a 3f 94 86 bb 3e 97 5e f8 3e
       0.40475643 0.7895952 0.36626112 0.48509666
0002c0 d0 c5 3c 3f d9 0b 2d 3e a1 40 97 bc 90 21 e2 3e
       0.7373934 0.16899051 -0.018463435 0.4416623
0002d0 d2 8f ae bd a6 e7 f4 be d0 56 8c be 08 21 9b bd
       -0.08523525 -0.47832984 -0.27409983 -0.075746596
0002e0 6e 2d d4 3e fe ae 8d 3e c3 73 bf 3e db 05 d1 3e
       0.4144091 0.2767257 0.37393007 0.4082478
0002f0 06 0b 1d be 63 94 00 bd 36 41 51 be f6 74 aa bd
       -0.15336236 -0.031391513 -0.20435032 -0.0832309
000300 54 c3 8e be 4b 1b 23 3f 66 25 15 3e 10 65 ba 3f
       -0.278834 0.6371352 0.14565048 1.4562092
000310 80 0c 02 3e 62 65 cf 3c 50 df 32 3f b8 ea d1 3d
       0.12700081 0.025316898 0.69872 0.10249847
000320 c9 3d 88 be a1 d1 98 bf 15 70 91 3f 6e 11 91 be
       -0.26609638 -1.1938974 1.136233 -0.2833361
000330 59 7d 33 3e d1 3c 1b 3e d9 75 97 be f8 f1 9b 3f
       0.17528285 0.15159918 -0.29582098 1.2183218
000340 ad a2 3e be 78 04 f5 be 29 e5 7e 3e d0 2e 46 3f
       -0.18616743 -0.47854972 0.24892105 0.7741518
000350 58 ad 0c 3d af 6b 59 3f ec 0b f5 be 38 c3 0c be
       0.034345 0.8492994 -0.47860658 -0.13746345
000360 9e e6 2b 3e ba 1a 05 3f bc 15 8f 3d af 5b cb 3c
       0.16787192 0.51993906 0.069865674 0.024823992
000370 da fc 71 be 7d c2 09 3e 89 4d 33 3d c0 ac 1b 3d
       -0.23631611 0.13453098 0.043775115 0.038006544
000380 c6 25 9f 3e cb d7 0d 3f 9d 87 10 3f 54 93 0f be
       0.31083506 0.554074 0.5645693 -0.14021045
000390 24 a5 94 3d 84 f8 aa 3e 81 4d e3 3e de 66 d5 be
       0.072580606 0.33392727 0.44395068 -0.41680044
0003a0 8f b2 26 3e 16 39 97 3e c4 85 c3 be 28 b0 67 3f
       0.16279052 0.2953574 -0.38187993 0.9050317
0003b0 d7 7d 40 3f 51 7a d6 be 7f 3b 3d 3f 05 46 b3 3f
       0.75192016 -0.41890195 0.7391891 1.4005743
0003c0 9c b6 a8 be a3 5b 8d 3e 36 ae d3 3d 93 48 a8 3e
       -0.3295182 0.27608976 0.103359625 0.3286787
0003d0 90 16 df bd 16 7f 0b 3f cb 5d db 3e da d0 01 3f
       -0.10892975 0.5449079 0.42844996 0.5070931
0003e0 46 a6 e3 3e ca 1f 3c 3f 53 05 a5 3c 7e 7f cc 3e
       0.44462794 0.73486006 0.02014414 0.3994102
0003f0 02 b0 71 be 94 35 8b be 7f 93 0d 3e 14 54 61 be
       -0.23602298 -0.27189314 0.13825797 -0.2200473

l1.bias f4 [8]
000000 3f f4 39 3e 05 f6 f4 3e e2 e0 f0 3e 9f 0c a6 3f
       0.18159579 0.47843948 0.47046572 1.2972602
000010 de 45 70 3f c1 77 3c 3f 9e 1b e0 3e f5 7e 06 3f
       0.9385661 0.7362023 0.4377107 0.5253747

l2.weight f4 [8, 8]
000000 55 ca 1b 3f ea 04 07 40 31 9a 87 3f 63 47 97 bf
       0.6085561 2.109675 1.059393 -1.181866
000010 22 a7 a3 3d 42 e6 09 40 cb 31 a5 3f 86 b1 13 3e
       0.079908624 2.1546788 1.2905821 0.14423189
000020 3d ea 8d 3f 47 84 83 3f 0c 81 10 3f bd 77 79 bf
       1.1087109 1.0274743 0.5644691 -0.9744833
000030 50 32 df 3f 8a c3 cf 3e 78 db c5 bf b1 97 40 bf
       1.7437229 0.40578872 -1.5457602 -0.7523146
000040 60 9d 37 3f 0e cc 8b 3e 30 2a 95 bf e3 b8 19 3f
       0.7172451 0.2730412 -1.16535 0.6004774
000050 58 ff cd 3e 4c bf 3d be 7e f9 2b 3f bf 16 84 be
       0.40233874 -0.18530005 0.6717757 -0.25798604
000060 c0 5e cb bd 20 44 66 3c 35 d1 34 be d5 8a 38 3e
       -0.099301815 0.014054328 -0.17657931 0.1802171
000070 ed 80 b4 be 1e 25 49 3d 0a d7 a9 be da 45 f7 bd
       -0.35254613 0.049107663 -0.33171874 -0.1207387
000080 77 51 3c bf cb 56 f8 3f 3a 7c dc 3f e8 e2 eb bf
       -0.73561805 1.9401487 1.7225411 -1.8428621
000090 9c ef af 3e 1f b4 d1 be 92 cb 2a 3f d6 9b a1 3f
       0.34362495 -0.40957734 0.66716874 1.2625682
0000a0 14 90 ad bf 66 9c ac 3e 5a f5 3d be 8f 41 05 40
       -1.3559594 0.33713073 -0.18550625 2.0821264
0000b0 93 3a d2 3f a4 22 e0 3f 05 58 b6 bf 65 1f 12 bf
       1.6424125 1.7510571 -1.4245611 -0.57079154
0000c0 da 41 a6 bf 51 f1 c9 3e 16 f0 b0 bf 0e 1c ca 3d
       -1.2988846 0.39441922 -1.3823268 0.09868632
0000d0 2f 24 9f 3f 15 35 c9 bf c1 ec ba 3f 6e 32 09 40
       1.2432917 -1.5719324 1.4603502 2.143703
0000e0 ea fd bd 3f b9 57 9d be 93 7c e2 3f 08 c8 94 3f
       1.4843113 -0.3073099 1.7694267 1.1623545
0000f0 f7 43 2e 3f 72 44 07 c0 a8 6b 3a bf 45 07 9e 3f
       0.68072456 -2.1135526 -0.7282052 1.2345968

l2.bias f4 [8]
000000 0c 36 a6 3b 1f 22 0a be 1a 4d 63 bf 05 4d 25 be
       0.005072361 -0.13489579 -0.8878952 -0.16142662
000010 8b 0f 9d 3e 0d 32 af 3f bb c9 ad 3e c0 55 84 be
       0.3067592 1.3687149 0.3394297 -0.25846672

l3.weight f4 [19, 8]
000000 64 93 cb bf 8f 59 bf bf 56 ee cf bf 75 21 1f be
       -1.5904355 -1.4949206 -1.6244609 -0.15540107
000010 d7 dd a3 bf fe 9a f9 3e 69 10 db bc b8 f0 df 3e
       -1.2802075 0.48751062 -0.026741223 0.4373834
000020 9b 5b ee be dc 93 88 3e 86 ab 0c c0 b5 c6 29 be
       -0.46554264 0.26675308 -2.197969 -0.16579707
000030 e5 da 8d 3e 32 7e 35 bf 7e 87 74 be 54 52 dc 3e
       0.27706066 -0.70895684 -0.23879811 0.4303156
000040 7d da 10 bf 7a 6e 0e c0 c8 11 6a bf 03 96 52 3e
       -0.56583387 -2.225493 -0.9143338 0.20565037
000050 e0 70 64 3e 16 c7 ad bf 1c f8 82 3f e8 56 8b 3d
       0.22308683 -1.3576381 1.0231967 0.068036854
000060 c5 d7 05 3f 3e 37 cb 3e 9b 27 7c bf 33 f2 6a 3e
       0.52282363 0.39690584 -0.98497933 0.22943954
000070 57 cd 91 3e b1 df 06 c0 ac 05 7a bf 5f 44 de 3d
       0.28476974 -2.107403 -0.97664905 0.108528845
000080 13 d4 e2 3e 69 f8 89 3e d9 f1 51 c0 8c a7 56 3e
       0.44302425 0.26947334 -3.2803862 0.20962352
000090 3d 79 22 3f 8b fc 09 bf ea 90 56 be 14 27 b1 bf
       0.63466245 -0.53900975 -0.20953718 -1.3840051
0000a0 eb a2 d6 bf f9 79 d4 bf c4 97 36 bf c6 04 4b be
       -1.6768469 -1.6599723 -0.71325326 -0.1982604
0000b0 9c 03 9a be a2 87 f7 3f 0c 58 10 c0 41 54 a5 bf
       -0.3008088 1.9338267 -2.255374 -1.2916337
0000c0 c6 60 80 bf ff e1 d8 bf ec e8 cb 3f 95 4c 03 be
       -1.0029533 -1.6943969 1.5930457 -0.12822182
0000d0 e1 52 93 bf e1 ad dc be a8 f6 35 3f c8 fc 97 bc
       -1.1509668 -0.4310141 0.7107949 -0.018553153
0000e0 88 91 22 3f 04 68 bd be 91 17 7c 3e ea 32 26 be
       0.63503313 -0.3699342 0.24618365 -0.1623036
0000f0 09 8c cd be 6a a8 ee bd 23 bb 90 bf 94 ed 07 be
       -0.401459 -0.11653216 -1.130711 -0.13274223
000100 47 ab a0 be 50 51 62 3f e4 78 28 c0 92 f2 fa 3d
       -0.31380674 0.88405323 -2.6323786 0.12253298
000110 9e 36 ad 3e b9 f1 0d 3e cb 66 1c c0 34 dc 02 be
       0.33830732 0.13861741 -2.443774 -0.12779313
000120 08 db b1 3d c4 81 f6 3e 02 37 4b 3e 23 a4 bd be
       0.08684355 0.48145878 0.19845203 -0.3703929
000130 ce 02 d4 bf 7b e5 2e 3f f6 df f0 bf 50 2d e6 bf
       -1.6563356 0.6831891 -1.8818347 -1.7982578
000140 75 f7 e3 3e 05 53 0b c0 8b 22 eb bf 5c c7 9a 3e
       0.44524732 -2.176942 -1.8369917 0.30230224
000150 7c 7b 76 3f 64 22 f3 bf df 01 ec 3e 55 04 a5 bf
       0.9628217 -1.899487 0.46095178 -1.2891947
000160 bb 2c f8 bd 57 95 d0 bf 39 bc 4d c0 d5 ea 6e be
       -0.12117907 -1.6295575 -3.2146132 -0.23331769
000170 39 60 19 3f 52 9a b7 bf a4 08 a1 bf b3 3b 82 3f
       0.5991245 -1.434397 -1.2580762 1.0174469
000180 a5 10 8e 3f 03 bb 0a c0 b5 a8 f3 be c4 1c 9b 3e
       1.109883 -2.1676643 -0.4758965 0.30295384
000190 c0 49 04 bf ce 5f 1e 3f d4 97 13 c0 b0 94 03 c0
       -0.51675034 0.61864936 -2.3061419 -2.0559502
0001a0 32 76 bb bd a9 d0 81 be f9 40 31 3f 23 25 7c 3d
       -0.09153403 -0.25354508 0.69239765 0.061558854
0001b0 9f 2c 01 c0 df 7c e5 3e 6f 43 0d 3e 64 61 83 bf
       -2.0183485 0.44821832 0.13795255 -1.0264096
0001c0 b9 33 6b bf 82 e4 26 3f e6 fd 92 3f 36 80 11 3e
       -0.918758 0.65192425 1.1483734 0.14209065
0001d0 35 e2 8b bf f2 86 30 be 4c 8a bb bf 66 09 17 3f
       -1.0928408 -0.17238978 -1.465158 0.58998716
0001e0 85 36 4c be 92 2e 1e bf d8 6c 25 3f 67 e8 43 3e
       -0.19942673 -0.6178981 0.6461921 0.19131623
0001f0 e5 0c 86 3d 03 3d d3 be 06 c4 06 3f 1a d7 5c bf
       0.06545428 -0.41257486 0.5264286 -0.8626572
000200 4d a5 9a 3f fa bb f8 bf ae 7b 6b c0 6e d8 10 be
       1.2081696 -1.9432366 -3.6794238 -0.14145061
000210 d1 ed 37 3f 5b 63 b0 bf bb 00 9b bf 4e a6 93 bf
       0.71847254 -1.3780321 -1.2109598 -1.1535127
000220 b9 db 22 3f 0f f9 7a 3f b8 05 8a 3e 0f 40 9a be
       0.6361652 0.98036283 0.26957488 -0.30126998
000230 8c 3d 12 bf 25 56 e5 be 40 83 fc bf 50 28 e5 bf
       -0.57125163 -0.44792286 -1.9727554 -1.7902927
000240 3a b7 f5 be 06 7b e9 bf 6f 32 79 c0 12 42 9a 3e
       -0.47991353 -1.8240669 -3.8937032 0.30128533
000250 e1 c5 25 bf ef c3 d9 3e d3 f3 1b c0 b3 83 7f 3f
       -0.64755064 0.42532298 -2.4367568 0.9981033

l3.bias f4 [19]
000000 c5 33 4c bd ee 6f 10 bf ea f2 66 3f f6 79 5a 3d
       -0.04985406 -0.5642079 0.9021441 0.053338967
000010 4c 57 34 bf 6d 4c 3d 3f 26 97 b9 3d ed 35 02 3f
       -0.70445704 0.7394474 0.090620324 0.50863534
000020 a9 cc 20 bf 94 b9 57 bd 19 ca f9 bc dc 64 ad 3c
       -0.62812287 -0.052667215 -0.030491875 0.021166258
000030 e6 14 ea 3e cf 71 c7 3d 90 ef 93 bd 0f a4 54 bf
       0.4571907 0.09738504 -0.07223427 -0.83062834
000040 9a 2b 64 3e 28 9c 24 bc d4 96 e0 3c
       0.22282258 -0.010046996 0.02741567
